deep-learning-in-ais/super_resolution/FSRCNN_300_epochs.pt (torch, 111855 bytes, 18 tensors)

feature_extraction.0.weight f4 [56, 3, 5, 5]
00000000: d060 f83d 66b6 023d 668e af3d 9856 af3d
00000010: fcf6 a5bc 63d0 073e c9e4 92bd 57f1 8a3d
00000020: dab5 a5bc b7c3 313d cff8 b03b ec60 073c
00000030: 84d7 863c 4e73 863d 6b2e d13d c6e1 5d3d
00000040: b981 52bd 4c45 9abd f106 0d3b c285 4abc
00000050: 03a4 183d c1fe f13d b591 453c 4a71 ba3d
00000060: ea6c 8c3d 87c1 2bbd 2074 ec3d 3e5d e2bd
00000070: 23ea 803c 18aa 08bd e34a fabc 8519 1cbc
00000080: 6695 37bd f955 dcbb 8fec f6bc 4e34 593c
00000090: e28a b2bc 9d13 383d 4ad4 a6bd d650 e73d
000000a0: 57ab a3bd 6835 1ebc 3b58 4d3b cd7d cebd
000000b0: fb0f d33d 0226 3cbd 5277 bf3d fb7f 273c
000000c0: d496 97bd 5d9b b33b c089 5cbd 0075 a03d
000000d0: d58e a5b8 6c2b 62bd 3d7c 4f3c 8499 dd3d
000000e0: 4a22 9bbd 7850 733d ed92 c23d d21f 143e
000000f0: 10e8 a1bb cf85 26be c233 aebd 9397 a53c
00000100: 72cf aebd 98e0 66bc 6f3d 343d 82b6 283d
00000110: c758 b83d ec7d 5f3d d995 00bc 7433 063e
00000120: b6e5 e53b dd9f 25bc 2368 9cbc 1136 783c
00000130: 706a 783c 9194 92bc b268 64bd aabe d2bc
00000140: d312 31bd f9e1 da3c c82e 583e 61ed 18bd
00000150: bfbb 823d bb1b 07bd 4c6c 2c3e 7d75 833c
00000160: a368 65bd 06b7 4b3e bb6a 9e3d 7247 89bd
00000170: 1ef3 0b3d 254c 843d bf8e 2d3c 2326 ca3c
00000180: 2d52 bd3d 0b8b f23d 608d bd3c fdb0 96bc
00000190: ba75 273d 628a 13be 7317 af3d 080b c3bd
000001a0: c87b 9fbc fd60 0bbe 0ea8 843d b3c3 713e
000001b0: f0a8 d33c c475 34bd e7d5 a6bd 2e18 00bc
000001c0: 2091 93bc a814 e73d 5bd6 06bd 24e5 1f3d
000001d0: 3f17 6abd 7300 e5bc b34b 283e f571 b9bd
000001e0: 25eb 70ba a485 903d 6e21 413d 5db3 5dbd
000001f0: 7fb9 ed3c 900b acbc d3a0 bdbd a382 9abd
00000200: 4cd4 90bc 2d25 a13c 4bbb bf3b 2b89 1f3e
00000210: a2b7 433e 1492 833c 066c 893d ee1f 1d3d
00000220: 3a15 4b3d de59 49bd 2d62 243c 821e 9d3d
00000230: c6be 873c 7a3b 3cbd 74a4 773d c3e9 0e3e
00000240: 3b86 84bd 49c7 47bd cfa3 023e 654d ff3c
00000250: 285a fc3d c96b e13a 55c8 ae3c f682 49bc
00000260: 7307 8ebc 88fa d7bc dfe5 b0bd f498 76bd
00000270: 17c6 b73c 0c77 79bc 65a6 f93d 7549 cfbd
00000280: 3409 133e 4b7b 88bd d49c cc3c 9953 b53d
00000290: dae4 533d 1076 be3c e157 413d fbb7 d13c
000002a0: ef02 ab3d fc5e 5dbd 6668 cc3c d713 463d
000002b0: a39c 09bc 09af 42bb 2d9c a53d d437 da3b
000002c0: 5d37 02be 72d4 d7bd c89a 9abd eb8b 7f3d
000002d0: 5c60 7c3d cda8 813d 3124 29bd fbab 103d
000002e0: 6dd7 79bd 69ec 763d 3a3e f6ba d06e 3abe
000002f0: 0bf1 00be 6cb4 aebc ba84 db3d fc6c 863d
00000300: dfab 00be 9fe0 2e3d 7c6d 173d 22c8 07be
00000310: 260a 8fbd fc0d 80bd 6e54 3dbd f831 553c
00000320: ccec e73d ed6f c13d 9107 1dbb b602 b6bd
00000330: df07 50bd 5e13 83bb 2e06 60bd 0886 e33d
00000340: 3012 cbbd 2e0f 15bd b77d be3d 5068 9fbd
00000350: d610 53be 37c1 01bd bc1a 21bd eaa1 4dbc
00000360: 4cd9 01bd d3de b5bd c108 95bd cb56 9e3d
00000370: 9b24 e03c 0bf0 67bd f4aa 633d 9378 043d
00000380: 8377 4ebd 4298 c03d 3b62 f5ba 2b65 96bd
00000390: b01b 1e3d 656c 6c3d 3a77 d53d 5d80 763d
000003a0: 05cf b4bd 499b 17bd 4564 fe3b 892d cbbd
000003b0: 6f78 053d 60dd 3b3d 2802 1cbb 9389 bd3c
000003c0: 8503 933d ed74 c53c a6f0 a8bd 88e5 1b3c
000003d0: 789b 163d 5255 ed3d 74e0 fb3c d4fc 053e
000003e0: 7db5 fb3d 4385 2abd 3080 8d3d bc6e 043d
000003f0: 2ee8 4ebc 1b4a 673c c81a 9f3d f299 4e3d
0.121278405 0.03191223 0.08572082 0.08561438 -0.020259373 0.13263087 -0.071725436 0.06784313
-0.020228315 0.04339954 0.005400754 0.008262854 0.016460188 0.065649614 0.10213932 0.054170392
-0.051393244 -0.075327486 0.002151903 -0.012360992 0.03726579 0.118161686 0.012058665 0.091036394
0.06856711 -0.04193261 0.115455866 -0.11052941 0.015736645 -0.03336534 -0.030553287 -0.009527569
-0.04482021 -0.006724116 -0.030142097 0.013257099 -0.02179474 0.04494058 -0.0814596 0.11294715
-0.07991665 -0.009656288 0.0031333107 -0.10082588 0.103057824 -0.045934685 0.093489304 0.010223384
-0.07401815 0.005481167 -0.053842306 0.07834816 -7.894418e-05 -0.05521719 0.012663898 0.108202964
-0.075748995 0.059402913 0.0950068 0.14465263 -0.004940994 -0.16261981 -0.08505966 0.020213878
-0.08535661 -0.014091633 0.0440039 0.041189678 0.09001308 0.054563448 -0.007848226 0.13105565
0.007015909 -0.010108915 -0.019092625 0.015149609 0.015162095 -0.017893108 -0.055763908 -0.025725681
-0.043230843 0.02671908 0.21111596 -0.037335757 0.06383466 -0.03298543 0.16838187 0.016047234
-0.056007992 0.19894037 0.07735201 -0.0670308 0.0341674 0.06459836 0.010593115 0.024676388
0.092441894 0.118429266 0.023138702 -0.018394941 0.040883757 -0.14408258 0.085493945 -0.095235884
-0.019468203 -0.13611217 0.064773664 0.2360981 0.025837392 -0.044057623 -0.081462674 -0.007818265
-0.018013537 0.11283237 -0.03291927 0.039036885 -0.057151075 -0.027954316 0.16435127 -0.09054939
-0.00091903127 0.0705674 0.04715102 -0.054126132 0.029019115 -0.021001607 -0.092591904 -0.07544448
-0.017679356 0.019671047 0.0058511845 0.15579669 0.19113019 0.016060866 0.06710057 0.03836053
0.04958079 -0.04915797 0.010033173 0.076718345 0.01657046 -0.04595516 0.06045957 0.1395636
-0.06470915 -0.048774038 0.127578 0.031164834 0.123218834 0.001719826 0.02133576 -0.01229929
-0.017337536 -0.02636458 -0.086375944 -0.06020446 0.022433324 -0.015226137 0.1218994 -0.10121433
0.1435898 -0.06664141 0.024977125 0.088538356 0.05173192 0.023249656 0.04720295 0.025600424
0.08350169 -0.054045662 0.024952125 0.048358764 -0.0083991615 -0.002970638 0.08086429 0.0066594873
-0.12716432 -0.105385676 -0.075490534 0.062389296 0.061615333 0.06331024 -0.04129428 0.035320263
-0.06099646 0.060284052 -0.0018786856 -0.18206334 -0.1259195 -0.021326266 0.10718675 0.06563756
-0.12565564 0.042694684 0.036969647 -0.13259938 -0.069843575 -0.06252667 -0.046223097 0.013012402
0.11324462 0.09445176 -0.0023960809 -0.08887236 -0.050788756 -0.0040001115 -0.054693393 0.11109549
-0.09915578 -0.03639143 0.09301322 -0.07783568 -0.20611891 -0.031678405 -0.039332137 -0.01255081
-0.03170137 -0.08880391 -0.0727706 0.07731398 0.027361205 -0.056625407 0.055582955 0.03234155
-0.050406944 0.09404041 -0.0018721292 -0.07343515 0.038600624 0.05772056 0.10423131 0.06018101
-0.08828548 -0.037013326 0.007763418 -0.099207945 0.032585558 0.045865417 -0.0023804996 0.02313689
0.07178406 0.024103606 -0.08249025 0.009515174 0.03676936 0.11588539 0.030746676 0.13084728
0.122904755 -0.041630995 0.069092155 0.032332167 -0.012628598 0.014116789 0.0776878 0.050439782

feature_extraction.0.bias f4 [56]
00000000: a8bf 713c 2d34 8f3d 2aeb ce3d eed6 dc3d
00000010: e7c2 c83c 24cc e53d 0866 903d 928f fd3c
00000020: 42ef 71bd 9382 05bd 67cc 0fbd 537d 7abc
00000030: f11f 41bd fc3d 4a3d 0e9d 4d3c 4b64 59bd
00000040: c37d a6bb 4311 90bd 2ae5 233d 5d00 e73d
00000050: 190b eb3d 3cd7 f63c 93af f8bc a3a9 b63d
00000060: 954c 4d3c 428d 633d 6ac8 93bb 76cb 463d
00000070: 4280 50bd 8eac b63d 9ffc 0dbc b667 7bbc
00000080: efbb 843d ec33 673c 5742 c4bd 938c 50bd
00000090: 4307 4a3d fdfe 753d c905 a53d 3d10 523d
000000a0: 8211 ac3d c7a2 b43d aee2 7d3d dfbb 47bd
000000b0: edfd b53b 9b61 1a3b edaf b43d 3b90 c0bc
000000c0: 146a 933d feae df3d 688c 813d 3899 0cbd
000000d0: 1aa3 033d ce6c 193d c23e c63b 5eb6 f53d
0.014755167 0.069923736 0.10103448 0.10783182 0.024507 0.11220577 0.07050711 0.030952249
-0.059066065 -0.03259523 -0.035107043 -0.015288669 -0.047149602 0.04937552 0.012549652 -0.053074162
-0.00508091 -0.070345424 0.04001347 0.11279366 0.11476726 0.030131929 -0.030357158 0.089190744
0.012530466 0.055554636 -0.004509975 0.04853388 -0.050903566 0.08919631 -0.008666187 -0.015344551
0.06481158 0.0141115 -0.09582966 -0.050915312 0.04932333 0.06005763 0.08057744 0.051285017
0.08401777 0.0882011 0.061983757 -0.048763152 0.005553952 0.0023556713 0.08822618 -0.023506274
0.07197967 0.10922049 0.063256085 -0.03432581 0.032137968 0.03745728 0.006049962 0.119976744

shrinking.0.weight f4 [12, 56, 1, 1]
00000000: 3814 99bd a537 613d ee64 98bb 9002 c03c
00000010: 5d42 e73c 1bdf e93d 9a2d 0e3d fa84 223e
00000020: 2d15 ad3d 75fe e63d 4070 d43d a000 9ebd
00000030: 7f6d f63d 94b2 c23c f2f6 293d 4324 473c
00000040: d08f 09be 9b82 2fbd 99a0 b6bd a25c 1bbe
00000050: af5b 8ebd 97ea ec3d e648 f73d 8af8 9c3d
00000060: ef1b d1bd 8910 6e3c 8c15 1bbe b654 c93c
00000070: c91c dfbd f366 11be fe5f 23be 8a41 833d
00000080: e43d 863c 6609 2abd 1124 0a3e 9e07 203d
00000090: b536 bb3d 467b f1bd f997 823d a9be 6c3d
000000a0: 84a8 f23c b494 15ba 0fdb 68bd 6888 033e
000000b0: 8428 cfbd 4a68 143e aca3 15bd 0aa4 35bd
000000c0: 4a74 8d3d 6eb3 563d ce53 1a3e 11b1 5c3d
000000d0: 626a 81bd 1d6c 873d b229 93bd f313 c73d
000000e0: 1396 a33d 8fc1 a73d f663 e2bd c062 e03d
000000f0: 27c5 d63d 13b3 ddbc af58 0a3e db3a d43d
00000100: 5d70 843e cf1d a13d edc6 f93d df71 b6bd
00000110: 6f9f 5c3d 77dd 5d3d 437c 0abe ee1d e5bd
00000120: 4688 643d 0c97 6d3d 8a5e 24be df40 ddbd
00000130: e60f bb3d 4a50 f83d 29ea f1b9 3341 a5bd
00000140: 4263 823d 6fa9 c13c abf2 65bd 866b d33d
00000150: c525 10be 66e4 84bd db15 b0bd b8d8 8f3d
00000160: 5305 09bd cc39 d83c 5388 b83b 80a3 b43d
00000170: 9cb4 203e 1cff 693d ff77 bebd bc90 683d
00000180: 559a 823c 39b5 0d3d 3f77 bbbd 8661 a83d
00000190: 4546 7ebd 4e04 98bd 83ab bcbd 9497 ba3d
000001a0: e4e0 e5bc 18a2 a4bd be7e df3d eb22 0bbe
000001b0: 90e6 223e 55d7 3a3e c7ab 9abd 9124 ce3c
000001c0: 6602 84bd bf8f 283e 0b6f ff3d 5964 d7bd
000001d0: 3d01 2f3c cb13 323d 137f 08be e27c 05bd
000001e0: 7e14 44be 4061 d93d 23e2 28bd 8dd6 293e
000001f0: ff05 fabd 6afa 30be 781b 0e3d 23a2 17be
00000200: 639f b8bc ad5a d0bc 4b39 b43d ad89 a83d
00000210: a5c6 5ebc 09c2 5f3d 0f3d 1c3e 8279 a3bd
00000220: daf4 e33d a218 8c3d 0c15 a73d cf67 a93d
00000230: 1083 1dbd f23b 103e 4092 2cbd 1a70 ffbd
00000240: 938f e1bd d825 9a3d 0a81 093b 5b1a f5bd
00000250: aa49 c53d 3bb3 863d b9b1 ad3d 820a 043e
00000260: 8b3e c6bd bc4c 073e a5f2 c3bd b6ba 1f3e
00000270: e257 d03d a49a 033d 360e c1bc 9543 053e
00000280: fb7b b0bd 62f4 ea3d 4d74 4dbd 4853 fa3d
00000290: e6dd 833e 45b0 b4bd cea0 0a3e eb98 b73d
000002a0: fe57 72bc 1fee ff3c e09a 49be 9325 2d3e
000002b0: 74c1 a6bc b454 d43d 6aa1 023e 31ee e23d
000002c0: d97d ba3c 39ab a33b 2b95 aebd 8d03 f8bd
000002d0: 48ad aebd 9e2b 2c3e cea6 103e 4c10 0e3e
000002e0: bd81 0fbe a568 9b3d 7e38 3a3e a9fa 68bb
000002f0: 000d 9fbc 9316 e63d 7f4b 09be 686f 5c3d
00000300: 5f47 b3bc fda4 5fbd 8054 8c3d 63a1 e5bd
00000310: 574f 1f3e fc22 a5bd bf65 ce3d a048 803c
00000320: 0856 8cbd 9c96 1cbe 98db c9bc 3404 ed3d
00000330: 3e37 b83d ea51 0d3d c939 a4bd e3d7 5fbd
00000340: 66f5 7dbd e2ea 843d 3cb7 b8bd 4fa4 003e
00000350: 3783 a93d e419 243e cd95 15bc 4432 fbbd
00000360: f1af 4e3e a3c9 01be a3fe 303d 501d f6bd
00000370: e6c7 e1bd a0af 813c 3eef af3d 7f44 d73d
00000380: 47cb 80bd 5411 9bbb b87b cf3d 727c e33d
00000390: 923f d53d 1f23 173e 9570 e53d 142a 9f3d
000003a0: d8e5 bdbd 9a42 e1bb 9b06 65bc 3f1b 01be
000003b0: 8afd 193e 1a32 c13d 4cc1 be3c 8a04 8d3b
000003c0: b2da 113d 74ec 123e 6e04 a73d abae 123b
000003d0: dc10 d1bd bec2 d33c 9146 e7bd e9c1 ef3d
000003e0: f2a0 0d3e da2b 183d 0d4e 0ebe 7376 f2bd
000003f0: b192 243d d3d3 1cbe 3260 1ebe 795b 9e3d
-0.074745595 0.054984707 -0.0046507036 0.023438722 0.028229887 0.11419507 0.034711458 0.15871039
0.084513046 0.112790026 0.103729725 -0.07714963 0.120326035 0.023766793 0.04149527 0.012154642
-0.13433766 -0.042849164 -0.0891735 -0.15172055 -0.06951081 0.11568182 0.12074451 0.076645926
-0.10210406 0.0145303095 -0.15144938 0.024576526 -0.10894162 -0.14199428 -0.15954587 0.06408985
0.016386934 -0.04151287 0.1349032 0.039069764 0.09141294 -0.11791091 0.06376643 0.057799015
0.02962137 -0.00057060574 -0.056849536 0.12845004 -0.101151496 0.14492908 -0.036533043 -0.044345893
0.06906946 0.05241721 0.15071031 0.0538798 -0.06319119 0.06612418 -0.07185687 0.09720602
0.07987609 0.08191215 -0.11054222 0.10956335 0.104868226 -0.027062928 0.13510393 0.10362788
0.25866976 0.07867014 0.12196145 -0.08908438 0.053862985 0.054166283 -0.13523965 -0.11187349
0.055794023 0.058005378 -0.16051689 -0.10803389 0.09133892 0.12124689 -0.00046141565 -0.080690764
0.06366588 0.023640363 -0.05613963 0.10323243 -0.14076908 -0.06488876 -0.085979186 0.07023758
-0.033452343 0.026394747 0.0056314855 0.08820248 0.15693897 0.057128057 -0.09300231 0.056778654
0.015942732 0.034596656 -0.09153604 0.08221726 -0.062078733 -0.07422696 -0.09212401 0.091109425
-0.028061338 -0.080387294 0.10912846 -0.13587539 0.15908265 0.18246205 -0.07552295 0.02516392
-0.0644577 0.16461085 0.12472352 -0.10517187 0.010681448 0.043475907 -0.13329725 -0.0325898
-0.19148442 0.10614252 -0.041231286 0.16585751 -0.12208175 -0.17283025 0.034694165 -0.14807944
-0.022536939 -0.025433863 0.0879999 0.082293846 -0.013597165 0.054628406 0.15257667 -0.0798216
0.11130686 0.06840636 0.08158311 0.08271753 -0.03845507 0.14085367 -0.042131662 -0.124725536
-0.11013713 0.07526749 0.0020981454 -0.119679175 0.09633191 0.06577154 0.084811635 0.12894633
-0.09679898 0.13212866 -0.09567765 0.15598568 0.10173012 0.0321299 -0.023566347 0.13014062
-0.086173974 0.114723936 -0.05015974 0.12222916 0.25755233 -0.08822683 0.13537905 0.08964714
-0.014791487 0.031241475 -0.19687986 0.16908865 -0.020355918 0.10367718 0.12756887 0.11080588
0.022765087 0.0049947766 -0.08524545 -0.12110052 -0.085291445 0.16813514 0.14126131 0.13873404
-0.14014335 0.07588319 0.18185613 -0.0035549796 -0.019415379 0.112347744 -0.13407706 0.053817183
-0.021884618 -0.054600704 0.068520546 -0.11212423 0.1555761 -0.08063313 0.10078 0.01565963
-0.06852347 -0.15291828 -0.024640843 0.11573067 0.089949116 0.034501947 -0.08018834 -0.054649245
-0.06200161 0.06490113 -0.09019324 0.12562679 0.0827698 0.16025501 -0.009129954 -0.12265447
0.20184304 -0.12674575 0.04321159 -0.1201731 -0.11024456 0.015830815 0.08590554 0.105111115
-0.06288772 -0.0047322903 0.10131019 0.111077204 0.10412516 0.14759491 0.11203114 0.07771698
-0.09272355 -0.0068743946 -0.013978626 -0.1260805 0.15038124 0.09433384 0.02328553 0.0043035196
0.035608955 0.14348012 0.08155142 0.0022381942 -0.10208294 0.025849696 -0.11292756 0.11706907
0.13830927 0.037151195 -0.13896962 -0.11838999 0.04017896 -0.1531518 -0.15466383 0.07732291

shrinking.0.bias f4 [12]
00000000: b11e 4a3c 0858 463d 9833 17bd afd1 e03d
00000010: 93d9 3dbd afc8 653c 72a9 863b c57d f23b
00000020: 7fc1 be3c 3713 e6bd aeff 1bbd 8f72 6cbd
0.012336419 0.048423797 -0.036914438 0.10977494 -0.046350073 0.0140248975 0.004109555 0.007400247
0.023285626 -0.11234134 -0.038085632 -0.05772644

non_linear_mapping.0.weight f4 [12, 12, 3, 3]
00000000: e8df ab3d c3d9 3abd e77c 1cbd 95a6 79bc
00000010: da04 adbd 66b4 a23c c542 c63b cb30 813d
00000020: e007 e4bc e582 49bd 375b 68bd b06b 10bc
00000030: b740 3c3d 34bf 9dbd a1c1 3dbd d749 ebbc
00000040: 2dae a83c cc33 883c 8942 253d c743 a6bc
00000050: e333 a3bd a6df 55bd 4a15 033e 7e2b 443e
00000060: 9430 f63d f2f7 b6bd 4392 003d 093d 473d
00000070: d483 d83d 73a3 063e 8b16 113e a5f0 17bd
00000080: 088b a9bb 5409 1dbc 81bd 933d 7eef 66bd
00000090: cc78 aebd e923 d9bb efe7 133c 91a7 8bbd
000000a0: d27e a03b 0e6e a2b9 8383 93bd 1620 98bd
000000b0: ce0b ce3c 5566 063d 52af b23d 8198 553b
000000c0: 6621 853d 434b 03be 950e 83bd 8f91 0e3e
000000d0: a5f3 123e 07cb ef3c 9d60 e6bc 4e5b 26bd
000000e0: afcd fbbc 401b 833c 9530 ab3d b659 2fbd
000000f0: 3675 3c3d e820 bfbc 0e60 72bb f4e4 b13c
00000100: aabf b8bd 5b36 c13c 8205 d0bd e811 08be
00000110: 1ac3 873d 39c3 583d 0e35 51bd fbea c63d
00000120: 67d1 c8bb d74c e93d bb0d a83d 8383 763c
00000130: 8168 0f3e 2757 cfbc d413 d73d 08a8 a03d
00000140: 08d5 2f3d 2845 66bd 92f8 1a3d dc4f 9a3d
00000150: cebc 85bd 2f3c adbc 505e 813d 96b5 c73d
00000160: ef8e aebc 8d1f 293c c4c8 0a3e 6ac2 3ebd
00000170: bd6f 67bc 6f65 01bd 79ef 523d 867a c9bd
00000180: e7b6 3f3d b8bc b3bc 153a 13be 4e3d 7c3b
00000190: 8f4d ac3c 6cb9 523b 7493 e53d 599a c53d
000001a0: 235c bfbc 0d57 43bc 5614 75bd 24bd c8bd
000001b0: 7250 33bd 0101 2fbd 79b0 63bd bf20 c4bd
000001c0: 1842 9b3d 1884 213d 8ae3 963d 73a9 45bd
000001d0: 89c5 55bd c9a1 c8bd bea3 9d3d 0c0e 543d
000001e0: da25 c5bd 3a16 9d3d 028d c2bd c0aa da3c
000001f0: 3175 98bc da74 d6bb e3ee 163e 811d c83c
00000200: d521 4c3d 03cc 95ba 6398 c1bd 4f0b 43bd
00000210: 6555 26be 6312 89bd 0b4b b23d 4da9 25bd
00000220: c8ac f73d d48d 003d aef8 133d ccd4 d53b
00000230: e279 da3d ce1f fe3d 840a d43d 9b91 d23d
00000240: 3c71 b33d 7845 c9bc 2bcc 443d 4d3e a2bd
00000250: 5173 1b3d a674 57bc 7bbe dc3b 407a 9d3d
00000260: a8ae 5e3d 7693 e0bc 35bd 6bbd 9e9b 9b3d
00000270: 82e1 e1bd 15ba 71bd 2673 fa3d 2461 0b3b
00000280: b36b 013e c06d 6d3d d548 8d3d 1500 76bd
00000290: 248b ab3d d989 41bd 251a f5bc 5937 4e3c
000002a0: 560d 8abd d5fe 7b3c 015c 3d3d 5dff a8bd
000002b0: 3d1e 40bd a61c 933d 2445 9abd dcd5 063d
000002c0: 59c8 9f3d cc55 85bd 9ed0 ea3d 062b 873d
000002d0: 513d b13d 5776 c43c dc46 8fbd 9ac4 533d
000002e0: 94f7 863c 1274 8cbb 79c0 183d 7937 02bd
000002f0: 45bc 8dbd 8ae8 cf3d ad95 4b3d deb5 603d
00000300: f2c3 94bd 0cc6 3ebd e816 683d c2cb c63d
00000310: f553 9f3d 9929 063c 363c ba3d fe14 a53d
00000320: c7ae 0d3e fad3 b53c bfc4 7fbb 3339 d1bc
00000330: e183 a93d 8f01 963d 8177 52bd 66ee 08bd
00000340: 9f43 693d e8fe 0dbe 79a0 88bd a5ec d3bd
00000350: 3261 84bd 1c53 9bbd 8d1f 1cbe f09f e4bb
00000360: 9126 a0bc 6e91 313c 47cb bdbb ab5a 8f3d
00000370: 413f aebd 94a8 acbd 0db7 873d 1686 62bc
00000380: 9a9c 893d 0347 5bbc f98e 85bd 1912 5d3d
00000390: cf7a 60bd 9ea8 1bbe 34a3 94bd 2b09 a6bc
000003a0: 07eb d0bd f6b0 033d d491 b13b d30a 523e
000003b0: 67f1 ee3d afcc bf3d 6e50 883d c50a 933d
000003c0: 022e 303e 8587 68bd 6724 433e 195a b43d
000003d0: bf41 b0bd 7096 31bd 26cb a93d d1e2 ddbc
000003e0: ba3f 443d f2e1 72bd c655 903d 3de2 433c
000003f0: abe2 05bd 3658 dfbd 2001 92bd 5b12 65bc
0.08392316 -0.04561783 -0.038205054 -0.01523747 -0.08448191 0.019861411 0.00605044 0.06308135
-0.027835786 -0.049197096 -0.056727614 -0.008814737 0.045960154 -0.07702485 -0.046327237 -0.028721733
0.020590866 0.016626261 0.040346656 -0.02029599 -0.07968881 -0.05221524 0.1280109 0.19157216
0.12020984 -0.089340106 0.031389486 0.048642192 0.10572019 0.13148288 0.14168756 -0.03709473
-0.0051740445 -0.0095847435 0.072138794 -0.05638074 -0.08519134 -0.0066265953 0.009027465 -0.0681907
0.0048979307 -0.00030981045 -0.07202818 -0.07427995 0.025152113 0.032812435 0.08724846 0.003259212
0.06500511 -0.12821679 -0.06399266 0.13922714 0.14350756 0.029271616 -0.02812224 -0.04061442
-0.030737726 0.016004205 0.08358876 -0.042810164 0.04601022 -0.02333112 -0.0036983523 0.021715619
-0.09020932 0.023585489 -0.101573005 -0.1328808 0.066290095 0.052920554 -0.051075988 0.09712788
-0.0061284783 0.11391609 0.08205744 0.015046003 0.14004709 -0.025310112 0.10501829 0.078445494
0.04292777 -0.056218296 0.03783471 0.07534763 -0.06530152 -0.021146862 0.06316817 0.09751432
-0.02130839 0.010322464 0.13553149 -0.046572126 -0.014125762 -0.031590875 0.05149791 -0.098378226
0.04680529 -0.021940574 -0.14377625 0.003848869 0.021033077 0.0032153977 0.11209765 0.0964858
-0.023359364 -0.01192261 -0.059833847 -0.09801701 -0.04377789 -0.042725567 -0.05558822 -0.09576558
0.07580966 0.039432615 0.073676184 -0.048257302 -0.052190337 -0.09796483 0.07697247 0.05177121
-0.0962636 0.07670255 -0.09499551 0.026692748 -0.018610569 -0.0065446915 0.14739566 0.024428131
0.049836952 -0.0011428598 -0.094528936 -0.047618207 -0.16243513 -0.0669296 0.087057196 -0.04044466
0.12093502 0.031385258 0.03612583 0.0065256115 0.106677786 0.1240841 0.10353568 0.10281678
0.08761832 -0.024569258 0.048046272 -0.07922039 0.03795177 -0.01315037 0.006736574 0.07689333
0.054365784 -0.027414065 -0.05755349 0.07598041 -0.1102934 -0.059015352 0.12228994 0.0021267617
0.1263874 0.057965994 0.06898657 -0.060058672 0.08376148 -0.047250602 -0.029919693 0.012586438
-0.06740825 0.015380581 0.04623032 -0.08251832 -0.046903837 0.07183199 -0.07532719 0.032918796
0.07801885 -0.06510505 0.11465572 0.06600003 0.08654273 0.02398221 -0.06995937 0.051701166
0.016475476 -0.0042862976 0.03729293 -0.031791184 -0.06920675 0.10151775 0.04970329 0.054860942
-0.07263936 -0.04657559 0.05666247 0.097068325 0.077796854 0.008188629 0.090935156 0.080606446
0.13836204 0.022195805 -0.0039027182 -0.02553997 0.08277107 0.07324516 -0.0513835 -0.03343048
0.056949254 -0.1386677 -0.06671233 -0.10347871 -0.06463851 -0.07584211 -0.1524641 -0.006977074
-0.01954964 0.010837896 -0.005792055 0.069997154 -0.085081585 -0.08430591 0.06626711 -0.013825914
0.067193225 -0.01338363 -0.065214105 0.053972337 -0.05480462 -0.15201041 -0.07257691 -0.020268044
-0.10201078 0.032151185 0.0054189954 0.20511942 0.116671376 0.09365212 0.06655966 0.071797885
0.1720505 -0.056769866 0.19056855 0.08806247 -0.0860629 -0.04335636 0.082907006 -0.027085694
0.047912337 -0.05929751 0.0704761 0.011955795 -0.03268687 -0.10905497 -0.07129121 -0.013981427

non_linear_mapping.0.bias f4 [12]
00000000: 2039 433c 60ec bc3d eaf2 6dbd f6a3 413d
00000010: fac1 7bbd 8743 66bd afcc 263d fcde ef3b
00000020: f9d0 623c f6cf 813c 861d 17bd 04f4 33bd
0.011915475 0.092247725 -0.05809299 0.047275506 -0.061464287 -0.056216743 0.040722545 0.007320283
0.013843768 0.015846234 -0.03689339 -0.043933883

non_linear_mapping.2.weight f4 [12, 12, 3, 3]
00000000: 0cab e3bd cfdf 5abd f17f 583d c856 853c
00000010: d1e7 ea3c 5740 49bb 88a5 c53d f044 bf3d
00000020: 09e6 273d 2110 19bd 72c0 913d 5c8e 84bd
00000030: 1c0c 28bd 5446 b23d 8f1e be3d 185b 77bd
00000040: 8e95 6a3b 5854 d23d b8f3 b43b 81ae 17bc
00000050: f2c4 35bd ccb8 23bd f6eb b43d bca4 8f3d
00000060: 12ea 3c3d 3497 a43d 54e9 8d3c 91a0 54bd
00000070: c305 d1bd 0fe2 b43d 6493 a13d b7ed c53c
00000080: ceae c7bd e3a3 8c3d 88bc 91bd 1e02 b3bd
00000090: 0e1f 823d bad6 b63c 2483 9fbd 9f4c c83d
000000a0: 0ced f1bb 11d0 8c3d 60ce ff3c 2a82 c3bd
000000b0: d6a8 fabd 531f efbc 29ea bcbc 80dc 5abd
000000c0: d44e 45bd c633 3cbd 63cb fdbd 8ac8 423c
000000d0: 7780 e4bd 122b 90bd 07e7 273d 6acd abbd
000000e0: a34f 1dbd b3e1 083c e1e6 e03d 015a 063b
000000f0: 3f76 343d da16 d23d 2853 60bd ff55 7d3d
00000100: 56aa 253d f8dd a43d da0c 81bd 19a2 9fbd
00000110: 34f4 a4bc adb0 8f3d 74b9 383d 602b 393d
00000120: be0d a3bc 99ec d7b9 9e21 f83d dfd1 843c
00000130: 746e 3d3d 631b 663c d1ed 60bd 9694 74bd
00000140: 6b69 46bd 5c56 3dbc ccfc c8bd e8b5 073d
00000150: c508 31bd e93f c4bd c90a a7bc 33d7 003d
00000160: 6394 b6bd fb1b 423d 13bf 343d 81bb bfbc
00000170: 5423 703d 2cf1 b03c 1826 83bd a3cc b5bd
00000180: 11a7 823d f2a1 a9bd 2b2a 85bd aa59 d4bc
00000190: 314e 9e3b 28fb 13bd 60b8 bdbb 1add f93b
000001a0: 6209 71bc f639 873c 5add b23c 1e6f ef3c
000001b0: 8f57 123e 333e a73d af45 5e3d ada8 e6bd
000001c0: 22d0 1dbe 9c7d 76ba 5cd5 fa3d 787f 183e
000001d0: 853b 253c db3d 06bd c42d 683a 891e 1f3d
000001e0: 7d94 063d c455 223d ec05 06bc 7641 f4bd
000001f0: 9657 d53c 375b debc 3c48 883d d8a1 8c3d
00000200: 4259 2c3c ccd4 d43d b669 4f3d df00 f83c
00000210: c921 cdbd 4565 1abd e16b e0bd 54b1 abbd
00000220: e7db 88bd 6bed e63d 4fae 8c3d 4081 eb3d
00000230: 507a dd3d af76 d53d e543 02bd 35df 5ebd
00000240: 800a 583d a7eb b0bd dbd6 8bbd eec3 e9bd
00000250: 00b7 36be 97de 7bbd 51a8 da3d edfe a63d
00000260: 6483 9c3d 38c1 833d d87f cabd 1fee 0dbd
00000270: a0aa e43c 926e b33d f7c3 fb3d 648e 78bd
00000280: d0ab dbbd fd52 c6bd 443f 01bd 8bf9 ab3d
00000290: fc08 1c3d d454 b5bd 1092 a7bd d8b3 1bbb
000002a0: 13d9 853d 4056 9dbd aaa2 26bd 9050 873d
000002b0: dcc5 c8bd 90cc 70bc 2082 1c3c 6af6 d13c
000002c0: a086 b33c d911 123d 5c43 0c3d 8726 433b
000002d0: 7545 d0bd cdfd 93bd d2b8 90bd 8a85 5dbd
000002e0: e5ec f23c 10b6 df3d 6f8c 9abd 8e43 a0bd
000002f0: f49d c6bc 377a 943d a888 5ebd 3749 8d3d
00000300: c117 a83d cfab b23d 8e0f 033e 4b89 25bb
00000310: c356 923d 56e1 8d3d bbd9 9fbd d1a8 633d
00000320: 80f7 cf3d 1199 983d 17cf aa3c b901 3bba
00000330: 338e 9cbd 4986 ec3d 1c25 b33c a39e afbd
00000340: c553 9bbd d2bc 8dbd 30eb 053e 8db0 d1bd
00000350: 769a adbd 8a7b ebbc 77a5 0a3d 44a1 f9bb
00000360: d5f5 96bd 3003 fdbd ddad b4bc b145 623d
00000370: 4397 67bd c546 65bb 8aec 973d 2f68 a13d
00000380: e7f1 11bd c507 073e 7c0c 443d cadd ac3b
00000390: 703d bd3d 7667 f3bc 12c6 293d 5c24 8d3d
000003a0: f78b 433d 818b 763d 1580 cc3d 91be 143d
000003b0: 376e 8f3c 3543 67bc 686f 0cbe 1a6f a73d
000003c0: bf0f 813b 9121 14bc be65 bd3d b6c5 8fbd
000003d0: acb4 74bc 8423 9bbc a534 93bd 3e8e 4abd
000003e0: aaab c23c 3291 6cbd 1980 1b3d 99bd 953d
000003f0: 2699 8fbd 7775 0ebe a806 893b 4e71 da3d
-0.11116609 -0.053436097 0.05285639 0.016276732 0.028674992 -0.0030708516 0.09650713 0.09339321
0.040990863 -0.037368897 0.07116784 -0.064724654 -0.041027173 0.0870482 0.09283172 -0.06038961
0.0035794708 0.102699935 0.0055222176 -0.009257914 -0.044377275 -0.039971158 0.088340685 0.070138425
0.046121664 0.08036652 0.017323174 -0.05191094 -0.10206177 0.0883218 0.07889441 0.024161203
-0.09750138 0.068671964 -0.071160376 -0.08740638 0.063535795 0.022319186 -0.07788685 0.09780239
-0.0073829945 0.06875623 0.031226337 -0.09546311 -0.12239234 -0.029189741 -0.023060875 -0.05343294
-0.04817088 -0.045947812 -0.123923086 0.011888633 -0.11157315 -0.07039465 0.04099181 -0.08388789
-0.038406026 0.008354592 0.10981537 0.0020500424 0.04405808 0.10258265 -0.054766804 0.06184959
0.040445648 0.0805015 -0.06301279 -0.077945895 -0.020135976 0.0701612 0.045098737 0.04520738
-0.019904014 -0.00041184275 0.12115787 0.016213356 0.046247914 0.014044615 -0.0549143 -0.059712015
-0.04844038 -0.011556234 -0.09813842 0.033132464 -0.043221254 -0.095825024 -0.020390885 0.03145523
-0.08915021 0.047389966 0.044127535 -0.023404839 0.05862744 0.021599375 -0.0640375 -0.08876922
0.06379522 -0.08282842 -0.065021835 -0.025921661 0.0048310985 -0.036128193 -0.0057898015 0.0076252343
-0.01471171 0.01650713 0.021834064 0.02922779 0.14291213 0.081661604 0.054265674 -0.11262641
-0.15411428 -0.00094028725 0.12247726 0.14892375 0.010084991 -0.032773834 0.0008856917 0.03884748
0.032856453 0.039632574 -0.008180123 -0.11926548 0.02604274 -0.027143104 0.066544026 0.06866807
0.010519328 0.1039215 0.050637923 0.030273853 -0.1001621 -0.037694234 -0.10958076 -0.08383432
-0.06682568 0.11275753 0.06869184 0.11499262 0.10814345 0.10423028 -0.03180303 -0.054412086
0.05274439 -0.08638697 -0.0682809 -0.11414324 -0.17843246 -0.061491575 0.10676635 0.08154092
0.07642248 0.06433338 -0.098876655 -0.034650918 0.027913392 0.08761324 0.12293237 -0.06068267
-0.1072613 -0.096837975 -0.031554475 0.08397206 0.038094506 -0.0885407 -0.08182156 -0.0023758318
0.06535544 -0.076824665 -0.040682472 0.06607163 -0.09803364 -0.014697209 0.009552509 0.025630195
0.02191478 0.035661552 0.034243926 0.0029777603 -0.10169498 -0.07226143 -0.07066502 -0.05408243
0.029653976 0.109233975 -0.07546317 -0.07825385 -0.02424524 0.07249873 -0.054329544 0.0689873
0.08207656 0.08724176 0.12798902 -0.0025258835 0.07145455 0.06927745 -0.07805201 0.055580918
0.10154629 0.0745107 0.020850701 -0.00071337406 -0.0764431 0.1154905 0.021868281 -0.085751794
-0.07584337 -0.0692078 0.13077998 -0.102387525 -0.08476727 -0.028745431 0.033849206 -0.0076181013
-0.073711075 -0.123541236 -0.02205556 0.055242244 -0.05654074 -0.003498481 0.07418163 0.078811996
-0.035631087 0.13186558 0.04786347 0.0052754628 0.09240234 -0.02971242 0.04144866 0.068917006
0.047740903 0.060191635 0.09985367 0.03631455 0.01750861 -0.0141151445 -0.13714373 0.08175488
0.0039386447 -0.009041206 0.092479214 -0.07020132 -0.014935654 -0.018937834 -0.071877755 -0.04945206
0.023763496 -0.057755657 0.03796396 0.073115535 -0.070116326 -0.13911997 0.0041817017 0.106661424

non_linear_mapping.2.bias f4 [12]
00000000: d6d6 45bd d152 103c ac17 9e3d c56c 5f3d
00000010: 4b0f ebbc c823 0cbd d44a d7bc 4cc5 f53d
00000020: f028 32bc 9564 7a3d eb58 703d 26a5 b03d
-0.048300587 0.0088088075 0.07719359 0.05454709 -0.028693816 -0.03421381 -0.026280798 0.12000522
-0.010874018 0.06113108 0.05867855 0.086252496

non_linear_mapping.4.weight f4 [12, 12, 3, 3]
00000000: 4f15 cd3d 3c28 54bd 5779 6fbd 9389 04bd
00000010: 3645 b1bd 9be5 acbd 3d7d 9f3d 463e 1d3d
00000020: 9165 023d 3f9d 7dbd b442 c43d 7aef b4bd
00000030: 8e67 003e 26d9 953d a5df 823d b8d4 b43d
00000040: a4cc 643d c469 3d3c 87f0 313c 2b52 213d
00000050: 1e05 9ebc afe4 c33d 07f5 44bd bc84 423d
00000060: 5da9 7b3c ac69 d53d dd9c b33d 0f4a d2bd
00000070: 1656 833d 8db9 a6bd 240f 893d 9e13 4c3d
00000080: 75a6 ed3b d2f9 833d d225 bf3d 5eef 043d
00000090: ed9f a43d c035 d43c 800c 57bd cca0 3ebd
000000a0: b030 1c3d 2a05 da3d fe5a 0a3d e41c 213d
000000b0: be4c f5b9 4de9 903d 5044 c5bd e795 70bd
000000c0: 0fd6 883c c90b a5bc 36f9 d5bd 25f3 893d
000000d0: 6a52 8c3c e289 bb3c c970 adbd b294 5b3c
000000e0: 140e 8a3c 1119 39bc 46ca 5abc 89ba bd3d
000000f0: 7e71 6abc 832b ce3d f32e ab3d 2ed5 ab3c
00000100: 2a86 4dbd 8729 6b3d a556 b93d 0f97 0d3e
00000110: e75d a83d e3ae fbbc d4de 15bd 7d10 8b3d
00000120: c5fd d93d 0cd0 533d 84b8 0e3d 15c1 e8bd
00000130: 5617 31be 2c38 4fbe 5180 93bd 8834 c0bd
00000140: 7a63 94bb 2461 c9bc 4a5c 23bd 2bcf be3c
00000150: c45b 84bd 54e7 04be f5e4 103d 6350 873d
00000160: 8d4a 0c3c ab2c ab3d 1e7a fbbc 8fba 28bd
00000170: 4fd3 e2bc fec2 513d 081c c5bc 49d6 2ebd
00000180: 39d5 243d f1a8 95bd bc85 94bb 573a f1bd
00000190: 3571 033d 1c5f 89bb 3d69 9abd 95ee e13c
000001a0: 8f81 8c3d 16c7 3ebd 43b9 2a3d 1fd4 8e3d
000001b0: 4a42 dc3c 6e05 73bd fcb0 09bc 933d 01be
000001c0: f95d 23bd aff1 953a 1036 913d c9c7 3e3d
000001d0: 3203 a9bd ffd7 b1bd 0073 d53d 3dea 3bbd
000001e0: b5f1 653d a3e5 73bc ce6b 79bc c748 a6ba
000001f0: 11db a3bd 1e6f 403d 164c 85bd 0d7c f43c
00000200: 9566 693d e285 863d f2a6 30bd 210f 4dbb
00000210: 38e1 253d 9fff dd3d 8175 b6bd 320f 933d
00000220: f92f ab3d cfec c13d ba25 90bc 6b73 b73d
00000230: 2280 3dbd 050c 88bd 51a5 92bd 17a2 18bd
00000240: 6acd 56bd 183b c23d 023d ae3b 23b1 103d
00000250: 63b5 fe3b fa63 dfbd 7d91 a83c 416b cebd
00000260: d10a f5bd 15b2 883c 2291 4dbd 1ea2 40bd
00000270: c27e 40bd 83ee 09be e7d9 90bb 751e 5f3b
00000280: 7aa3 553d 598f 26bc b118 683d e603 6c3d
00000290: bc2a e23d c605 bb3d 2765 0cbd 49e2 1b3d
000002a0: d7e5 98bc d816 d13d a90c babd e637 a4bd
000002b0: 19ea d43d 5020 853b d847 20bd 4726 083e
000002c0: 1f12 a43d e6e8 c0bd 83cb 3c3d 3d7e 313d
000002d0: b0b2 23bd 7fa6 c3bb b70b 7fbd 4510 793d
000002e0: bf29 25be 3b10 a3bd c40f 61bc 93a8 953c
000002f0: e99f 313d c249 49bc 2fd0 ef3d 2ad6 0a3e
00000300: 18ed 5cbd cf09 12be a618 24bd 2a0f 70bd
00000310: 73b9 ddbc 6ffe 6fbd c1db 4f3c 2aae 9b3d
00000320: 7bb1 d0bc 2818 8bbd 73c7 013e 3f9f 84bd
00000330: 24b9 b13d 8b5b 243e f014 54bd bd5a debc
00000340: 2871 8b3d b41b 1d3c 4f4c 093e 3239 b23b
00000350: 87f9 973d 5e57 dd3c 9001 fb3c d89a 813d
00000360: c229 acbd 3ff4 7b3c fdd5 1a3b e0d0 02bb
00000370: 0019 14be 7066 53bd c6f9 84bd 81e2 a9bd
00000380: 8501 823c 3de8 bcbd 0b26 ba3d d16d 623d
00000390: ba84 393d cbdc 3f3d c603 893d 2aa6 b4bb
000003a0: caff 61bd 85da 13bc 7e0e b63c 024d 983d
000003b0: 27d0 a4bc b840 30b9 624d 34bd b5cf 09bd
000003c0: 122e 703d e555 cabd 25bb 33bd 5b1d b4bd
000003d0: 09b1 ae3d 1eea c83d d3f9 83bd 515d 373d
000003e0: 21c9 c53d 09d3 f1bb 3e2e 783c 89ab d33a
000003f0: a214 abbd d1c5 a0bd 16e1 d5bd ffd4 023d
0.1001383 -0.051796183 -0.058465328 -0.032357763 -0.08655779 -0.08442231 0.07787559 0.038389467
0.031835143 -0.06191754 0.09583035 -0.08834739 0.12539503 0.073168084 0.06390313 0.088296354
0.055859223 0.011560861 0.010860569 0.039385002 -0.01928955 0.09565102 -0.04808524 0.047489867
0.015360204 0.10420546 0.08770154 -0.10268032 0.06412904 -0.0814086 0.06692341 0.049823396
0.0072525092 0.06444134 0.093333855 0.03245484 0.08038316 0.025904536 -0.052502155 -0.046540067
0.03813237 0.10645516 0.033778183 0.039334193 -0.0004678722 0.070757486 -0.0963217 -0.058736708
0.016703634 -0.020147221 -0.10447924 0.06735829 0.017129142 0.022892896 -0.08468778 0.013402151
0.016852416 -0.01129748 -0.01335389 0.092640944 -0.014309285 0.10066893 0.08358564 0.020975675
-0.050176777 0.05741265 0.09049729 0.13827156 0.082210355 -0.03072304 -0.03658946 0.06790254
0.10644106 0.05171208 0.034843937 -0.113649525 -0.17294058 -0.20236272 -0.07202209 -0.093850195
-0.00452846 -0.024582453 -0.039882936 0.023292145 -0.064628154 -0.1297887 0.0353746 0.066071294
0.008562696 0.08358129 -0.030697878 -0.04119354 -0.02768865 0.05121135 -0.024061218 -0.042684827
0.040242407 -0.07307614 -0.004532544 -0.117787056 0.032090385 -0.004192246 -0.07539604 0.027579585
0.06860649 -0.046576582 0.041680586 0.06974053 0.026887078 -0.05933135 -0.008404013 -0.12621145
-0.03988454 0.0011439825 0.0709039 0.04657725 -0.082525626 -0.08683776 0.10422325 -0.045877684
0.056138713 -0.014886293 -0.015223457 -0.0012686484 -0.08000768 0.04698097 -0.06508653 0.029844308
0.056982595 0.06568505 -0.04312796 -0.0031289535 0.04049799 0.108397715 -0.08909131 0.07180633
0.083587594 0.09468996 -0.017596114 0.08957561 -0.046264775 -0.066429175 -0.07160438 -0.037263956
-0.052441992 0.094839275 0.0053173313 0.03532518 0.007773088 -0.10907741 0.020577187 -0.10079051
-0.11964954 0.016686479 -0.050187238 -0.047029607 -0.046995886 -0.13469891 -0.0044205072 0.0034045253
0.052157857 -0.010166013 0.056664173 0.057620905 0.11043307 0.091319606 -0.034276154 0.0380576
-0.018664284 0.10209435 -0.09084446 -0.08018474 0.10396213 0.00406269 -0.039131016 0.13295852
0.08011269 -0.09419422 0.04609252 0.04333328 -0.03996533 -0.0059707756 -0.06226703 0.06080653
-0.16129206 -0.0796208 -0.013736669 0.018268859 0.043365393 -0.012285652 0.1170963 0.1355826
-0.053937048 -0.14261554 -0.04006257 -0.05860821 -0.027065968 -0.058592256 0.012686671 0.076015785
-0.025475254 -0.06791717 0.1267374 -0.06475686 0.08677891 0.16050546 -0.05177778 -0.027142877
0.06808692 0.0095891245 0.13408016 0.005438947 0.074206404 0.027019199 0.030640393 0.06328362
-0.08406402 0.015378057 0.0023626082 -0.0019960925 -0.14462662 -0.051611364 -0.06492953 -0.08295155
0.015869865 -0.092239834 0.09089287 0.05528051 0.045292594 0.046841424 0.06690173 -0.0055129724
-0.05517558 -0.009024267 0.022223707 0.07436563 -0.020118786 -0.00016808778 -0.04401911 -0.03364535
0.058637686 -0.09879664 -0.043879647 -0.087946616 0.085298605 0.09810279 -0.064441346 0.044766728
0.09657503 -0.0073798937 0.015147744 0.0016149144 -0.08353545 -0.078502305 -0.10443322 0.03194141

non_linear_mapping.4.bias f4 [12]
00000000: e5a7 c63d 2e9a b83d bfcf 7b3d 88ea be3c
00000010: 425a ad3d 4d6e 28bd b398 f3bc d47d 1dbc
00000020: 3507 af3d 3cec ab3d b642 dc3c 3b6e b03c
0.09699992 0.090137824 0.06147742 0.023305193 0.08464481 -0.041120816 -0.029735899 -0.009612519
0.085462965 0.083946675 0.026887279 0.021536937

non_linear_mapping.6.weight f4 [12, 12, 3, 3]
00000000: dfbc 1fbc 7641 d13c f8ee ccbc 57fc 743d
00000010: 9e0f a93c d355 20bc 4b48 5b3b 2296 2ebc
00000020: 5fb3 7abd 3cac 3c3d 73c8 953d 5b7f 92bd
00000030: c14b 09bd f786 763d d162 92bd 40ee 123d
00000040: 36c8 04bd bd21 c5bd 70e9 843c 1b35 da3c
00000050: e9f4 16bd dc66 b33d 7ea2 62bd 4d41 033d
00000060: 3983 2bbc 4b5b 84bd 0bd1 dbbd 6025 453e
00000070: 4b88 383c d8a7 0b3e ed1b 0f3e e3cb 20bd
00000080: e704 f83d ba7f 523e 7ca1 bfbd c821 ed3d
00000090: ebbb 82bc f322 9f3d 9dfb d03d 4e05 34bd
000000a0: 549a 04be ac9d 013e 7b45 9f3d 2ff5 98bd
000000b0: bbda c53d 2c41 2e3d e2fd e5bd ed59 803d
000000c0: 2823 8c3d ccad cb3c f9fc a23a 76c8 273b
000000d0: 382c c3bd c482 c13d f0d6 d73d f954 abbd
000000e0: e113 45bd f75a 03bc e0da 28bd aff1 4abb
000000f0: 1047 8fbd 7eb2 1bbb 0c09 6b3c aa1b 46bd
00000100: 0f8b 653b b07f 99bd 335c 64bd cf9f 81bd
00000110: 63a7 903d 6da4 683d fda9 e2bc e090 433d
00000120: cf01 a33d a39d 893d 2a97 a4bd 347c 873c
00000130: b638 d7bd ce9c 89bd a8de b53d be0c 25bd
00000140: 39ff ad3d c9b3 973d c323 963d 6b95 91bd
00000150: ce2c bcbd fd5b e23d eb6e e6bc af1a 2cba
00000160: c19a 933c d373 123d 36c8 66bd d047 4d3c
00000170: f850 3abc ad79 9f3d a645 ef3d 9fb5 8a3d
00000180: 2945 5b3d f485 6d3d c747 313c 8b76 c13c
00000190: b664 4f3d 8c6f 87bd 8098 a9bd c040 5f3d
000001a0: 4c1a d03c d10c 2bbd cd76 883c e6c1 21bd
000001b0: eb7c 673b 901c f53c 19ec 8abc 2b4a aebd
000001c0: 6815 4e3d 7b1e 623d 3240 64bd 8e0c a13d
000001d0: 9015 b8bc e80a 97bc 7c9f 8b3d af31 583c
000001e0: 91e2 a1bd c8a1 f5bd d269 85bd 42a9 8abd
000001f0: 0040 76bd 0004 59bd 6aba 0fbd 4bf4 e03c
00000200: 3fd6 803d e69e 03bd 25f2 b3bc 212b cabd
00000210: dce8 80bd 6b2d 033d cfc1 f73c f8e3 033e
00000220: ea6d 8cbc b303 633e e359 75bb b3dc 80bd
00000230: f7da 3b3e 137e a73c fa4d 123e 6286 123e
00000240: 438e 4dbc 96a3 e6bd 6e91 6dbd 6d52 bfbc
00000250: fb7b a03d e1c7 423e 571d 193c e45f c03d
00000260: f902 5d3d abd6 96bd b422 83bd f3b6 78bc
00000270: 208e 34bd 75b8 e13d c82b 333c 279f 61bd
00000280: 7154 64bd 0cdd 903c 2e9c 1ebc 514e a1bb
00000290: 30bb aebc 3a3d 90bd 8049 58bc 4a39 ac3d
000002a0: e060 f13d 1ff1 2c3e e79a 9abd 4f47 383c
000002b0: 4d83 aebd b740 19bd 3e39 94bd c218 9d3c
000002c0: ab14 d4bc a6aa ee3c 5e98 e8bc 7b60 5c3d
000002d0: d420 b03d ed5e 7a3d f19d dabd 7e6f c63d
000002e0: a967 e9bc 310a a93d 89e9 bd3d f0b6 31bb
000002f0: 7848 cf3b cd00 1abd 8c06 a9ba f39c bf3b
00000300: 1194 e3bc 193d e5bd 0c1a cb3c 6e66 de3d
00000310: bac9 cabb c649 883d ded1 af3d 35a8 843c
00000320: 95c6 15bd eb57 2cbd b91a 49bd 6b7a 98bd
00000330: 4a0e 01bd 1e03 fe3c 7e2f 0c3e 4cad 64bd
00000340: aa6f bc3d a931 2ebd 9060 88bd 6378 b13c
00000350: a014 b13d 0b60 7e3c d218 c73d 79b9 263c
00000360: 61b9 a43d bdfa 853d f0db b93d c728 643d
00000370: 1e7e 3a3d e768 303d 967d c83c 2439 2b3d
00000380: d0b9 1d3d 630e 983c 6347 37bd a4b3 debc
00000390: 493f ccbd 283b 96bc 111d ecbc 8ac3 973d
000003a0: eec2 393d bc76 c43d b5a5 a93d 0455 353d
000003b0: b261 1abd 1271 79bd d7ca 88bd fe48 00bd
000003c0: c276 7dbd b7d7 cebd 473e afbd 9065 3a3d
000003d0: f682 ac3d 903f 933c bd4f a3bd a141 1d3d
000003e0: a207 3b3e 525e 063d 31b6 6b3d 7437 c2bc
000003f0: 7909 17bc a3e4 80bd c90d 0abd ae5e 663d
-0.00974962 0.02554391 -0.025016293 0.059810963 0.02063733 -0.009786087 0.0033459838 -0.010655912
-0.061206218 0.046062693 0.07313623 -0.071531974 -0.03351951 0.060187306 -0.07147754 0.035871744
-0.0324175 -0.09625576 0.016224593 0.02663665 -0.03685466 0.08759853 -0.055330746 0.032044698
-0.010468298 -0.06462725 -0.10733231 0.19252539 0.0112629635 0.13638246 0.13975497 -0.03925694
0.1211031 0.20556536 -0.093569726 0.11578709 -0.015958747 0.07770338 0.102042414 -0.04395037
-0.12949497 0.12657803 0.07776924 -0.0746864 0.0966086 0.04254262 -0.11230065 0.06267152
0.06842643 0.024863146 0.0012435011 0.0025601662 -0.095299184 0.0944877 0.10539043 -0.083658166
-0.04811466 -0.008017293 -0.04122436 -0.0030966809 -0.06995976 -0.0023757513 0.014345419 -0.048366226
0.0035025512 -0.074950576 -0.05575199 -0.06329309 0.070631765 0.056797434 -0.027668947 0.047745585
0.07959329 0.0671952 -0.08036645 0.016538717 -0.10508864 -0.06719361 0.08880359 -0.040295355
0.084959455 0.07407338 0.0733104 -0.07108577 -0.09188233 0.110527016 -0.028129062 -0.00065652555
0.018018128 0.03575499 -0.05634328 0.012529328 -0.0113718435 0.0778688 0.11683206 0.06772923
0.053532753 0.057989076 0.010820336 0.023616096 0.050633155 -0.06613073 -0.0828104 0.05450511
0.025403164 -0.04176027 0.016658211 -0.039491557 0.003532226 0.029920846 -0.016958283 -0.0851024
0.050313383 0.05520485 -0.055725284 0.07863723 -0.02247122 -0.018437818 0.068175286 0.013195439
-0.07904542 -0.11993748 -0.06514324 -0.067705646 -0.06011963 -0.05298233 -0.035089888 0.027460238
0.06290864 -0.03213396 -0.02196605 -0.098715074 -0.062944144 0.032025736 0.030243782 0.12879932
-0.017142255 0.2216938 -0.003743761 -0.06292095 0.18345247 0.020445859 0.14287558 0.14309075
-0.012546125 -0.1126167 -0.05800002 -0.023354733 0.078361474 0.1902156 0.009345374 0.0939329
0.053957913 -0.073651634 -0.064031035 -0.015180337 -0.044080853 0.110215105 0.010935731 -0.05508342
-0.055744592 0.017683528 -0.009680791 -0.004922666 -0.021329492 -0.07042928 -0.0132011175 0.084093645
0.117860556 0.16888855 -0.075490765 0.01124747 -0.085211374 -0.037415233 -0.072374806 0.019176845
-0.025888762 0.029134106 -0.028392967 0.05380295 0.086000115 0.061125685 -0.10674656 0.09689234
-0.028491812 0.08253897 0.09273059 -0.0027117096 0.0063257776 -0.03759842 -0.0012895628 0.005847567
-0.027780565 -0.11193294 0.024792694 0.10859381 -0.0061885985 0.06654696 0.08584951 0.016193489
-0.036566336 -0.042076033 -0.04909775 -0.074452244 -0.031507768 0.031007346 0.13689992 -0.05582933
0.09200986 -0.04252783 -0.06659043 0.02166385 0.08646512 0.015525828 0.09721531 0.010176056
0.08043171 0.06541965 0.09075153 0.05570295 0.04553043 0.043068793 0.024473947 0.04180254
0.038507283 0.018561548 -0.044745814 -0.027185269 -0.09973008 -0.018338755 -0.028822454 0.07410343
0.045351915 0.09592959 0.08283559 0.04427053 -0.037690826 -0.060898848 -0.06679314 -0.03131961
-0.061880834 -0.10099738 -0.085568 0.045507014 0.08423416 0.017974645 -0.07974193 0.038392667
0.1826463 0.032804795 0.0575468 -0.023708083 -0.009218567 -0.06293609 -0.033704553 0.056242637

non_linear_mapping.6.bias f4 [12]
00000000: e8cb bdbd cca7 54bd 6c6a 8f3d fbdf bb3d
00000010: db2b b43d fb21 863d a327 9d3d a15a 673d
00000020: 0cff 08bd 9fa5 043e 6b8d c83b e74c 5a3c
-0.09267408 -0.051917836 0.0700272 0.0917358 0.08797427 0.0654945 0.07673576 0.056482915
-0.033446357 0.12953804 0.006120374 0.013323999

non_linear_mapping.8.weight f4 [12, 12, 3, 3]
00000000: 38d7 ce3c f435 f0bc b184 613d 4846 45bc
00000010: 9b1d a4bd 599e a0bd 9dc7 c83d 437b 8cbc
00000020: e8f7 d8bc e57d 1abc dbe5 47bc 98e3 8b3d
00000030: 092e 77bd 7d4d e2bc 23d8 8d3d 3576 e4bb
00000040: 6016 50bd e5ad 913b 6a0b 38bc 3c3f d13b
00000050: 3898 1dbc 5b35 103d e3cf 4f3d d7dc fcbd
00000060: 05de efbc 92be e2bd c0b2 44bd e0b2 efbc
00000070: 61bc ce3d 8741 aa3c 47ca a6bd d2fd 22bd
00000080: 7dd4 9c3d b7e8 7b3d 35d4 bf3d 059f bc3d
00000090: e57d 97bd f2fd 73bc f200 43bd 8a9b cabd
000000a0: 7946 cebd f707 eabd e970 883c 11a4 d53c
000000b0: 6f6d f9bc 84bb c0b9 eb83 92bc ce4e 313d
000000c0: 2160 6cbd 775b 31bd 98b9 79bd f02e 843d
000000d0: 1068 c13d 8f71 6bbd 64e4 9abb 778f e63a
000000e0: a92f a6bd 5dee 26bd 728c 283d 2521 07bd
000000f0: 4be0 efbc b9d8 c63c 07e9 833d 999a 893b
00000100: 4c55 db3d c677 98bc 5b30 bf3d e2e6 943d
00000110: aa13 aabd af0c cdbc fb8d 29bd 9642 923d
00000120: 956e 8e3d 1b8d bf3d 2641 a8bd 187e 84bd
00000130: e784 1ebe 6390 123d 92d4 8cbd 7a71 f63c
00000140: 07de 033d 8f8b bf3d 4f03 81bd a530 9ebd
00000150: 5f95 bf3d f0b9 823c 43fc 303d 4375 a9bd
00000160: 2662 a3bd 67f1 a53d e49b 293d d521 8fbd
00000170: c058 103d 9bcb 5c3d a3a3 0a3d 13dd 4b3d
00000180: 0732 21bd 1b8a 133d 1de0 b3bd 2a0f 93bd
00000190: 4ad6 04bd 002f dc3b 8f48 87bd 4ca9 cfbc
000001a0: 2485 a73d b260 563d 3a36 3a3d 39c9 a93d
000001b0: a788 d8bd ec57 b5bb 7fb4 b33c 7e3b d63b
000001c0: 8740 1b3d 6103 fa3d e526 a2bd 862e a4bc
000001d0: 2d0f 653d 6f04 f93d 2959 2bbd b032 d7bd
000001e0: bbfe dabd 5998 373d d85d 1a3b 05c7 99bc
000001f0: 66b9 673d 1149 4fbc 8ca5 c1bd a8a5 003c
00000200: 9562 d43d 54e7 8738 6e4e c9bd 51d6 fdbc
00000210: 932e cc3c 9f11 0bbd 545e 36bd 93db c5bd
00000220: b188 e03c e8cc 0fbd bf0f 66bc 9848 793d
00000230: f726 3b3d 6f49 703d 8d10 0abd b4c5 dabd
00000240: 97b7 8f3d 620c 2c3d 1f02 8abd d743 ad3d
00000250: a0a4 e53d e031 e73d 7626 68bd 23ed c4ba
00000260: e564 a23c 5d66 8dbd 5221 263c 8458 6fbd
00000270: e8f3 afbd 79ad ccbd f84b fb3c bc99 ccbd
00000280: 4694 e13b 4539 d5bc a1a4 1d3d 5858 b23d
00000290: 06c6 543d e24b b63d 214f 9dbc 9d51 a53c
000002a0: 5ae1 fc3b 1055 853d dde4 47bd 9720 733d
000002b0: acb4 bcbd 9429 e63b fa2c 7d3d 41f3 b6bd
000002c0: f12f 0b3e 9312 073b 1e59 2cbd 2622 2e3d
000002d0: 9550 20bd 7149 59bd 8809 c93d 6946 3c3c
000002e0: 2ba6 ec3d 4470 273e e8b1 c5bc e60a a73b
000002f0: a114 773d b2a3 a73d 949c d3bd 428a b2bb
00000300: 351a 80bd 62ef c0bd c6e3 c8bd 1ac5 d2bd
00000310: 82b4 b0bd 4922 83bc 035d 303d 931c 983d
00000320: 14aa 7cbd df6b 063e 50f7 153e b59d ed3c
00000330: 0e06 85bd f14b 603c 7124 ac3d 4c18 433d
00000340: acb6 6dbc 4cc5 b23a 7c15 96bc d899 6d3d
00000350: eb05 a6bd a4d3 c53c faff e7bd 29a8 b4bd
00000360: 3f6f 9e3d a4ff 313d 26e2 9bbc bf84 91bd
00000370: a606 d0bd a9e6 03be 8c50 a83d 293c 03bd
00000380: 68e1 a2bd 8f66 94bb 9c63 333c c069 ba3c
00000390: 7816 663a d7f6 1dbd cb09 e33b 1e44 643d
000003a0: eefc 69bd daf1 e5bc 0508 093d da9b dd3d
000003b0: 904d 633d 957e d6bc b446 9c3d 035e f03b
000003c0: e8d3 453d d389 6c3d 1ecb dfbd afd7 3b3d
000003d0: e56b d63c 28b6 d23c fa52 cabd 0696 4ebd
000003e0: eac9 a43c 1ef6 84bd 5915 ecbd d313 0cbc
000003f0: 198b 61bd fd51 bbbd f5bc 95bd 4c9f 9fbd
0.025249109 -0.029322602 0.055058185 -0.012040682 -0.08013459 -0.078427024 0.09803698 -0.01714862
-0.026485398 -0.00942943 -0.012200798 0.068305194 -0.060346637 -0.02762484 0.069259904 -0.006972099
-0.05080259 0.0044457787 -0.01123319 0.006385712 -0.009618811 0.035207134 0.050735366 -0.12346809
-0.029280672 -0.11071505 -0.04802203 -0.029260099 0.10094524 0.020783199 -0.0814405 -0.039792843
0.076577164 0.06150123 0.09366647 0.09210018 -0.07397059 -0.014892088 -0.047608323 -0.09892948
-0.10072035 -0.114273004 0.016655402 0.02607921 -0.03044769 -0.00036760804 -0.017885169 0.043288045
-0.057708863 -0.04330012 -0.06096801 0.06454265 0.094436765 -0.057481345 -0.0047269333 0.0017590363
-0.08114559 -0.040754665 0.041149564 -0.032990593 -0.029281756 0.024273263 0.06440931 0.0041993377
0.107096285 -0.0186118 0.09335395 0.072706 -0.08304532 -0.025030462 -0.04139517 0.071416065
0.069546856 0.093530856 -0.08215551 -0.06469363 -0.15480386 0.03578223 -0.06876482 0.030083407
0.032194164 0.093527906 -0.06299459 -0.07724122 0.09354662 0.015957803 0.043209326 -0.08274319
-0.07977705 0.081026845 0.041408435 -0.06988875 0.03524089 0.05390511 0.033847462 0.04977138
-0.03935435 0.03602038 -0.087829806 -0.07180627 -0.032430924 0.00671947 -0.06605636 -0.025349282
0.081796914 0.05233831 0.04546187 0.08290333 -0.10572939 -0.0055341627 0.021936653 0.0065378537
0.037903335 0.12207676 -0.07917575 -0.020041715 0.055922676 0.12159049 -0.041833077 -0.10507715
-0.10693117 0.044823024 0.002355447 -0.018771658 0.056573294 -0.012651698 -0.09455404 0.0078519955
0.103703655 6.48039e-05 -0.098294124 -0.030985983 0.024924552 -0.03395235 -0.044523552 -0.09661021
0.02740893 -0.035107523 -0.01404184 0.060860246 0.045691457 0.05866378 -0.03370719 -0.1068224
0.07017439 0.042003997 -0.06738686 0.08460205 0.1121304 0.1128881 -0.056677304 -0.0015024286
0.0198235 -0.0690429 0.01013978 -0.058434024 -0.08591443 -0.09994025 0.030675873 -0.0999026
0.0068841306 -0.026028285 0.03848708 0.087082565 0.051946662 0.08901192 -0.01920277 0.020180518
0.0077172937 0.06510365 -0.048802245 0.059357252 -0.09214148 0.0070239995 0.06181047 -0.08933116
0.13592507 0.0020610436 -0.042077176 0.042513035 -0.03913935 -0.053048555 0.09816271 0.011491396
0.115551315 0.1635142 -0.024132684 0.0050977347 0.060322408 0.08185519 -0.10332599 -0.0054486105
-0.062549986 -0.09420659 -0.09809069 -0.102915004 -0.08628179 -0.01600756 0.043057453 0.07427325
-0.061685637 0.13127087 0.14645123 0.029005865 -0.064952955 0.013689981 0.08405388 0.047630593
-0.014508884 0.0013639121 -0.018320791 0.058008045 -0.081065975 0.02414877 -0.113281205 -0.088211365
0.07736062 0.04345669 -0.019028734 -0.071053974 -0.10157518 -0.12880959 0.08218488 -0.032039795
-0.07953149 -0.0045288275 0.010949042 0.022755504 0.0008777152 -0.038565483 0.0069286576 0.055729024
-0.05712598 -0.028069425 0.033454914 0.10820742 0.05549389 -0.026183406 0.07630673 0.007335426
0.048297793 0.057748627 -0.109274134 0.04585999 0.026174495 0.025721624 -0.09879108 -0.050436042
0.020115811 -0.06492256 -0.11527509 -0.008549648 -0.055064294 -0.091464974 -0.07311431 -0.07794055

non_linear_mapping.8.bias f4 [12]
00000000: 4cd6 51bd 7f60 4e3d 4c99 63bd 7a2f d13c
00000010: c73b 13bd f270 7bbd aa65 453d 33d0 a1bc
00000020: a74d ea3c c60a e23c 2529 3a3d 6fd9 86ba
-0.05122976 0.050384995 -0.055566117 0.025535334 -0.03594568 -0.06138701 0.048192658 -0.019752597
0.02860148 0.027593028 0.045449395 -0.0010288189
